saved_model.pt (torch, 129107 bytes, 16 tensors)

gcn.conv1.bias f4 [64]
00000000: 0000 0000 0000 0000 0000 0000 0000 0000
00000010: 0000 0000 0000 0000 0000 0000 0000 0000
00000020: 0000 0000 0000 0000 0000 0000 0000 0000
00000030: 0000 0000 0000 0000 0000 0000 0000 0000
00000040: 0000 0000 0000 0000 0000 0000 0000 0000
00000050: 0000 0000 0000 0000 0000 0000 0000 0000
00000060: 0000 0000 0000 0000 0000 0000 0000 0000
00000070: 0000 0000 0000 0000 0000 0000 0000 0000
00000080: 0000 0000 0000 0000 0000 0000 0000 0000
00000090: 0000 0000 0000 0000 0000 0000 0000 0000
000000a0: 0000 0000 0000 0000 0000 0000 0000 0000
000000b0: 0000 0000 0000 0000 0000 0000 0000 0000
000000c0: 0000 0000 0000 0000 0000 0000 0000 0000
000000d0: 0000 0000 0000 0000 0000 0000 0000 0000
000000e0: 0000 0000 0000 0000 0000 0000 0000 0000
000000f0: 0000 0000 0000 0000 0000 0000 0000 0000
0.0 0.0 0.0 0.0 0.0 0.0 0.0 0.0
0.0 0.0 0.0 0.0 0.0 0.0 0.0 0.0
0.0 0.0 0.0 0.0 0.0 0.0 0.0 0.0
0.0 0.0 0.0 0.0 0.0 0.0 0.0 0.0
0.0 0.0 0.0 0.0 0.0 0.0 0.0 0.0
0.0 0.0 0.0 0.0 0.0 0.0 0.0 0.0
0.0 0.0 0.0 0.0 0.0 0.0 0.0 0.0
0.0 0.0 0.0 0.0 0.0 0.0 0.0 0.0

gcn.conv1.lin.weight f4 [64, 8]
00000000: fc24 68bd dfd3 523d 8979 113b a4c8 b531
00000010: a90e 0739 e493 8030 8e7b 4233 7ecc e03c
00000020: 1a41 fc3c 88a8 e5b3 9000 d03c 1d34 30b2
00000030: a004 eaaf b617 bd3c b6d4 803c de46 cc2e
00000040: 4306 0631 dbf1 cab0 923d e2bc 77aa 0a3a
00000050: d1c5 163d 4e3d ec30 5c30 153c ad86 70bd
00000060: 7c91 aab1 6503 87bc 5bed 063d f410 8d3b
00000070: 2d24 b5ba 033f 793d 680f 6c3d 8bfd 9431
00000080: e57e 52bd 0ef0 1c3c 5922 8db3 01eb c3b5
00000090: 8e74 0935 a34c 2732 4063 04bd 912f f233
000000a0: 517b 29bd 39d3 68bd 66a2 023c eb8e 73bc
000000b0: 9c0b 4530 5805 083c f384 33bd 3aee 53bb
000000c0: 6495 2dbd d615 2e3c c54a 4db7 6d9f 55bb
000000d0: c969 4230 6391 e23c 01ee c431 ccf7 cd3b
000000e0: f63c 583d 70e2 043c 7546 32b9 e2d6 863d
000000f0: 8a9d c5b0 c371 3f3b 7de2 c230 8c5d feb2
00000100: 857c 1e32 082b d8b0 a93f 7ebd a627 8cbd
00000110: 267f 1fbd 847c c5b9 408f bbb8 ff40 ebbc
00000120: f7d3 fc3a e3ab 6f3c f837 da2f ec65 3d3c
00000130: 745d 55b0 de8a fdba e785 d6bb 7098 39bd
00000140: 949f 23b8 9a4e 433d d1f4 ad3b 087b d6bb
00000150: 0e31 00bc def9 5b34 fdc4 562f 2ea6 d338
00000160: 8455 4ebd f15f 1a38 f899 abb8 f77b b3b5
00000170: 4086 b6b2 9447 cc3a 36e5 2534 0603 70bd
00000180: 9d7e 433d 76ac 6e39 d045 a835 a9e0 ba35
00000190: c9a0 b03c bd68 92b2 fddc 18bc c9ed 9eb2
000001a0: 2a4b 4732 d5a3 7c3a aec8 332f 0937 f131
000001b0: 850a 6e3d 0df9 8e3c b1fd 98b9 d2db f6bc
000001c0: 75b6 a2b5 d5c8 c2bc 5b76 01ba b94d 0033
000001d0: aa3e e73c 3d94 7a3d 2aee 163d 0dab fabc
000001e0: 763d 9431 e3bd 823d f000 82bd 539b 8d3a
000001f0: f670 66b4 6089 91bc 99f6 07bc 046e 373c
00000200: ad23 9cbc 398a 493d c156 4e3a 8277 903c
00000210: 5cd1 8c3c 5a87 d33c 888f efbc 0aaa 62bc
00000220: 9026 8f32 8abb 6a3d 4c18 d0bb 3089 2030
00000230: 6ff4 ad3c 480d 74b0 053e 2db1 43bd 8e38
00000240: a6ff 1c3c b490 0c38 ae89 453d 3f9e ae35
00000250: f958 e3b9 5305 34b1 94a7 50bd 3055 fc2e
00000260: f4c8 a3b2 657a c03c 922d 7935 8022 022f
00000270: 6023 f131 741e e23c ebe5 a2b0 8602 5432
00000280: a21f 813b 3790 ebbb e6e4 41bc 3044 78bd
00000290: 432f 03bb 59b9 6bbd deee 7abd e99d 203b
000002a0: c06e 5632 7db1 53b9 b5e4 1fbd 539d 03bd
000002b0: 482b c5b0 aaab 03bb 3895 e2bc 9d0d 13bc
000002c0: 51b3 cabc 9b10 66bd e794 e7bc 530b 49bd
000002d0: 56a3 863d 270d 1a3d 88e8 bdb1 29bd 0f3b
000002e0: a1f7 fb3b 7a79 aa30 dc44 0433 b862 8930
000002f0: c54c 75bd 87b5 c633 b744 323c 5530 c23c
00000300: 9b09 80bd 4fa9 c23b 52f0 26bd 64f8 763a
00000310: a603 1e3d 8003 12bd b65a cb36 9956 18b8
00000320: a364 2438 69e3 dfbc ecc3 21bd 10ee 06bd
00000330: a917 a7bc fecc cf3a 5bd7 e03a 965f 333d
00000340: 916c 5435 6811 ba30 3df3 2fbd 98c9 363c
00000350: c2f2 74bb ecb0 6d38 b65c a63c 7c89 243c
00000360: 60af 143d 6a90 04bd ce08 b435 18a1 34bd
00000370: 681c 12b9 4073 113d 3680 652e 4d3d c6b2
00000380: f591 f83a a93b 6abc e4dc 33b4 99a3 083d
00000390: f59d 46bd fbf8 9bbc efe9 cb3b fb2f e637
000003a0: c835 c530 188c 6e3d f098 e23b 5735 2cb8
000003b0: acbc 2fb2 755b f932 8add fc3c e765 fbbc
000003c0: 76cd 5ebd 0cd9 8db3 ea64 04b3 4696 3b3d
000003d0: 91fb 0437 d29b 4f35 0e0f a831 d912 39b1
000003e0: 6469 6ebd fd73 1eb5 2bad 8233 806b f6b0
000003f0: 472f 86bc 6377 7039 f022 91b3 4c88 18b9
-0.056675896 0.051471587 0.0022197685 5.2906035e-09 0.00012880065 9.355259e-10 4.5281517e-08 0.02744126
0.030792762 -1.0694299e-07 0.025390893 -1.02563975e-08 -4.2567638e-10 0.023082595 0.015726428 9.2894345e-11
1.9503126e-09 -1.4766174e-09 -0.02761725 0.00052896835 0.036809746 1.7188684e-09 0.009105768 -0.058722187
-4.964191e-09 -0.01648111 0.032941204 0.0043049995 -0.0013819985 0.06085111 0.05763188 4.3361914e-09
-0.051390547 0.009578718 -6.572072e-08 -1.4597027e-06 5.1206086e-07 9.7381045e-09 -0.032321215 1.12776554e-07
-0.04137737 -0.056842063 0.007973289 -0.014865617 7.168468e-10 0.008302055 -0.043827962 -0.003233804
-0.042378798 0.010625323 -1.2236361e-05 -0.0032596246 7.072712e-10 0.027657216 5.7314087e-09 0.006285643
0.052792512 0.0081106275 -0.0001700165 0.065839544 -1.4378412e-09 0.0029212094 1.417973e-09 -2.9612032e-08
9.225123e-09 -1.5728299e-09 -0.06207243 -0.068435 -0.038939618 -0.0003766754 -8.943537e-05 -0.028717516
0.0019289245 0.014628383 3.9693737e-10 0.011559945 -7.7621753e-10 -0.0019343754 -0.006546724 -0.04531139
-3.9010847e-05 0.047682382 0.0053087254 -0.006545428 -0.007824196 2.0486866e-07 1.9533171e-10 0.000100922174
-0.050374523 3.6805814e-05 -8.182594e-05 -1.3372618e-06 -2.1248638e-08 0.0015585297 1.5450209e-07 -0.058596633
0.04772817 0.00022761695 1.2537294e-06 1.3923465e-06 0.021561043 -1.7044266e-08 -0.009330031 -1.8501753e-08
1.1600415e-08 0.000963745 1.6351251e-10 7.02028e-09 0.0581155 0.017452741 -0.00029180714 -0.030134115
-1.2123043e-06 -0.023777405 -0.0004938596 2.987301e-08 0.028228123 0.061176527 0.036848225 -0.030599141
4.314354e-09 0.06383874 -0.06347835 0.0010803737 -2.1461514e-07 -0.0177657 -0.00829854 0.011195663
-0.01905998 0.049204085 0.00078712037 0.01763511 0.017189674 0.025821377 -0.029243246 -0.013834486
1.6664927e-08 0.057307757 -0.0063505527 5.8402616e-10 0.02123472 -8.8785557e-10 -2.5210067e-09 6.8063404e-05
0.009582436 3.3513366e-05 0.048227005 1.3010066e-06 -0.00043363104 -2.6196474e-09 -0.050941065 1.14747656e-10
-1.906708e-08 0.023495862 9.282604e-07 1.1835688e-10 7.018045e-09 0.027602412 -1.1852398e-09 1.2340598e-08
0.0039405385 -0.0071888226 -0.011834359 -0.060611904 -0.0020017184 -0.05754981 -0.061262958 0.0024508184
1.2481621e-08 -0.00020188648 -0.03903647 -0.032132458 -1.4345938e-09 -0.0020091333 -0.027659044 -0.008975414
-0.024743708 -0.05616818 -0.028269244 -0.049083065 0.065741226 0.0376102 -5.5270597e-09 0.0021932817
0.007689432 1.2403654e-09 3.0796272e-08 9.99612e-10 -0.059887666 9.253113e-08 0.010880641 0.023704687
-0.06251832 0.0059405933 -0.04075653 0.00094211684 0.0385777 -0.03564787 6.0604316e-06 -3.6320274e-05
3.9194372e-05 -0.027330117 -0.039493486 -0.032941878 -0.020397024 0.0015853939 0.0017154025 0.04379233
7.913414e-07 1.3538228e-09 -0.04295658 0.011156462 -0.003737614 5.6669975e-05 0.02030788 0.010042544
0.036300063 -0.032364286 1.3413608e-06 -0.044098943 -0.00013934227 0.0355103 5.2182446e-11 -2.307811e-08
0.0018964397 -0.014296451 -1.6751034e-07 0.033359144 -0.048490483 -0.019039622 0.0062229554 2.744048e-05
1.4348922e-09 0.058239073 0.006915204 -4.1057672e-05 -1.022924e-08 2.9029005e-08 0.030867357 -0.03068824
-0.05439516 -6.605305e-08 -3.0825426e-08 0.04579761 7.9263855e-06 7.734026e-07 4.891155e-09 -2.6931757e-09
-0.058205977 -5.902837e-07 6.085096e-08 -1.7929409e-09 -0.016379965 0.00022932659 -6.758444e-08 -0.00014546624

gcn.conv2.bias f4 [64]
00000000: 0000 0000 0000 0000 0000 0000 0000 0000
00000010: 0000 0000 0000 0000 0000 0000 0000 0000
00000020: 0000 0000 0000 0000 0000 0000 0000 0000
00000030: 0000 0000 0000 0000 0000 0000 0000 0000
00000040: 0000 0000 0000 0000 0000 0000 0000 0000
00000050: 0000 0000 0000 0000 0000 0000 0000 0000
00000060: 0000 0000 0000 0000 0000 0000 0000 0000
00000070: 0000 0000 0000 0000 0000 0000 0000 0000
00000080: 0000 0000 0000 0000 0000 0000 0000 0000
00000090: 0000 0000 0000 0000 0000 0000 0000 0000
000000a0: 0000 0000 0000 0000 0000 0000 0000 0000
000000b0: 0000 0000 0000 0000 0000 0000 0000 0000
000000c0: 0000 0000 0000 0000 0000 0000 0000 0000
000000d0: 0000 0000 0000 0000 0000 0000 0000 0000
000000e0: 0000 0000 0000 0000 0000 0000 0000 0000
000000f0: 0000 0000 0000 0000 0000 0000 0000 0000
0.0 0.0 0.0 0.0 0.0 0.0 0.0 0.0
0.0 0.0 0.0 0.0 0.0 0.0 0.0 0.0
0.0 0.0 0.0 0.0 0.0 0.0 0.0 0.0
0.0 0.0 0.0 0.0 0.0 0.0 0.0 0.0
0.0 0.0 0.0 0.0 0.0 0.0 0.0 0.0
0.0 0.0 0.0 0.0 0.0 0.0 0.0 0.0
0.0 0.0 0.0 0.0 0.0 0.0 0.0 0.0
0.0 0.0 0.0 0.0 0.0 0.0 0.0 0.0

gcn.conv2.lin.weight f4 [64, 64]
00000000: e390 0c37 ee9b 3a3b 8bd1 9cbc 911f 89b2
00000010: 6af1 993c ec3c 6aba 9479 beb9 1c8a 4331
00000020: 7c13 6bbc e968 f7b2 34e8 4a3c 1d1e c930
00000030: 8bee 34b4 f12a c33a 960f b1b4 e872 4039
00000040: f67d ac3c 2933 1332 e6b0 14b1 1c04 c539
00000050: 07af dc3b 779a 0a3b 1d97 ad3c 972f 04bc
00000060: e4b1 a536 9930 bcb6 2028 7fb1 4520 e5ba
00000070: 663b 93bc 4b9a a439 75b4 63b8 9e89 2c3c
00000080: 1994 66b5 e276 81b8 35b1 9c35 67b6 0431
00000090: 64c2 bf3b 482f 25ba 8850 bf2d 9c63 d5b8
000000a0: 9f23 22b5 0c7a 0234 5fa5 87bc ed40 8439
000000b0: 449d 093c 6cca 15bc ba73 7d32 e213 0633
000000c0: 8e1b 5d31 e02c c6bb cb2a a5bc 7cc2 9231
000000d0: f2cd d230 62da 87b3 6edc 08bb 3ef4 a3bb
000000e0: deda 1db2 d7b3 953c 3c6d 3a3c f615 1d32
000000f0: 7a49 69b4 c8f9 a830 f460 5e3b a7aa 9230
00000100: 0974 0532 6603 fc34 b184 21ba d186 b632
00000110: d5c9 803c e49f f831 a9d8 74bc ea77 783c
00000120: 112e 96b1 5d15 973a c43f 84ba 5b35 993b
00000130: a779 1cae 9fe3 a9bc 0d0f 9139 3768 adb5
00000140: eb8d ce3c bf19 4fbb cd10 8b3b 3d34 5cb9
00000150: 22c8 8ab5 040e c830 265b 533c 3820 6834
00000160: 9e4e db3a 2e1c c2ba ef12 6bbb 035b ac38
00000170: 5e4c 1731 09a5 a4bb d4d2 e5b3 a304 41bc
00000180: be3d 50bc bce5 8a35 6413 6c34 4352 2b3c
00000190: 74dd aebb d76e 6db7 e691 423b e561 4834
000001a0: 27bb 87bc 927f 34bb 37c7 6bb4 62b5 5ebc
000001b0: d4a8 48bc 9aac 92b0 6e7b cbba f14d 4d3b
000001c0: c302 c73c 6aec b8b0 9aac 21b1 d0d3 533c
000001d0: b01f 853b bcdd bf3c d4f0 4e3c ae8c 8b3c
000001e0: d897 343b 143b 3ebb 8579 61ba b7e8 3cb8
000001f0: 7da4 6c33 7cbb edb3 6282 e139 f3fd 34bc
00000200: 3d6f 3abc 0bf0 a13c ba8a a530 2bd6 f0ba
00000210: 21ca e6b1 f1f0 b23c 426f 643b 792a 5ab4
00000220: 74ee 8db7 0486 842f 2daa 5a31 1212 063b
00000230: b55a 03bb 32dd dd38 cba0 503c 2376 fc31
00000240: 75af 6832 03d0 8438 cf09 9dba 563b a0bc
00000250: 708f b9b5 f808 723c 00fe a9bb 743f b6b5
00000260: c685 94b0 37b0 813a 0897 7c3b 87ce 46bb
00000270: 20d1 b0b0 f868 35ae a824 a63c a231 ba3c
00000280: 86b6 973c 709a 25b0 790e 9532 6db8 e530
00000290: de16 f2b7 f87b b030 5f7f 8a3a 1852 efaf
000002a0: 8024 25b4 3ce3 c8bc c0f6 82b9 f879 29b1
000002b0: ffa8 b3b8 5633 ae30 9ff4 c33c 92c4 b6b0
000002c0: a539 75b0 57db 1933 87db 5831 593c aabb
000002d0: 800d a8bc 3e71 3f3c 8c80 1c33 658a 2fb2
000002e0: c6dd 9938 e9d9 16b6 29bc 8330 b3e4 2dba
000002f0: edef ff3a fc62 173b f38f 05b1 7bd4 0835
00000300: f836 9bb2 c013 59b1 b86b 8fb0 0217 393b
00000310: 0fb9 b2bb 1486 82b5 bc58 12bc 786c 9e2f
00000320: 2cf6 bab5 2ebe 883c fc57 3ab9 463e 9d30
00000330: e0d8 70b2 f071 8a33 acd3 262f 2320 9ab2
00000340: a8bf 13b2 d5bb 4bb1 0bf1 253a 4e24 ef38
00000350: c03d 1fbc 237b 9a3c 7cf5 893c e2e3 a5ba
00000360: 3028 3e3c 3d5a 253c 7ef6 52b2 71b9 8ebc
00000370: a445 63b1 8c74 5930 b41f 60b1 bdfe 9130
00000380: fc6c 803b bb96 9cba f2d0 0b3b 70f7 31b1
00000390: dc6e 07b2 87d0 4bb0 a719 5ab1 3e8a 96ba
000003a0: 6733 90b3 a58d 763b 1873 7cb9 9586 9cbc
000003b0: 2cc2 c1b1 1c53 ec2e 89a7 b931 2dff fc3b
000003c0: 4636 94b2 f611 4cb1 4b0d bf3c 5f16 c1bc
000003d0: f2f1 6335 daaa f1ba 4410 022f b7ac 8e33
000003e0: e4c9 3cbb d198 9737 6e56 8abb ec99 b231
000003f0: 4658 923c e183 8fba 3f5e 9cbc 80b7 c33c
8.378384e-06 0.002847429 -0.019142887 -1.5963254e-08 0.018791873 -0.00089354697 -0.00036330207 2.845474e-09
-0.014347907 -2.8802292e-08 0.012384463 1.4633234e-09 -1.6850588e-07 0.0014890117 -3.298016e-07 0.00018353353
0.021056157 8.568159e-09 -2.163739e-09 0.0003757783 0.006734732 0.0021149197 0.02119022 -0.008067987
4.9380924e-06 -5.608494e-06 -3.7130192e-09 -0.001748093 -0.01797266 0.00031395475 -5.428908e-05 0.010530857
-8.589719e-07 -6.173343e-05 1.167448e-06 1.9312212e-09 0.0058520306 -0.0006301296 2.1749949e-11 -0.00010175185
-6.040154e-07 1.2151594e-07 -0.016558347 0.00025225375 0.008399311 -0.009142499 1.4752851e-08 3.121739e-08
3.2175396e-09 -0.00604783 -0.020162007 4.2712696e-09 1.5338044e-09 -6.326151e-08 -0.002088334 -0.005003481
-9.188367e-09 0.01827423 0.011378583 9.143596e-09 -2.1726547e-07 1.2294601e-09 0.00339323 1.06714e-09
7.768002e-09 4.694113e-07 -0.0006161435 2.1248896e-08 0.015721241 7.2359274e-09 -0.014944234 0.0151653085
-4.3708117e-09 0.0011526752 -0.0010089804 0.00467555 -3.5578342e-11 -0.020738421 0.0002766777 -1.2919835e-06
0.025214156 -0.003160104 0.004243946 -0.00021000295 -1.0340048e-06 1.4555899e-09 0.012900149 2.1618405e-07
0.0016731804 -0.0014809424 -0.003586944 8.2185514e-05 2.2016802e-09 -0.0050245565 -1.0701993e-07 -0.011780891
-0.012710033 1.0348663e-06 2.1986267e-07 0.010456624 -0.005336458 -1.4152108e-05 0.0029689013 1.8662065e-07
-0.016568733 -0.0027541858 -2.1958554e-07 -0.01359305 -0.012247283 -1.0671954e-09 -0.0015524456 0.0031326974
0.02429331 -1.3454955e-09 -2.3526696e-09 0.012928918 0.0040626153 0.02342116 0.01263066 0.017034855
0.0027556326 -0.0029026913 -0.00086011767 -4.5039425e-05 5.5097633e-08 -1.1070276e-07 0.00043012487 -0.011046874
-0.01137906 0.019767782 1.2044759e-09 -0.0018374374 -6.7168604e-09 0.021843405 0.0034856354 -2.0318284e-07
-1.6919548e-05 2.4105884e-10 3.181991e-09 0.0020457548 -0.002004308 0.00010579302 0.0127336485 7.347596e-09
1.3544072e-08 6.332996e-05 -0.0011981073 -0.019559544 -1.382532e-06 0.014772646 -0.00518775 -1.3578524e-06
-1.0806438e-09 0.0009894435 0.003854217 -0.0030335502 -1.2865122e-09 -4.1247866e-11 0.020281151 0.022728745
0.018519651 -6.024612e-10 1.7352464e-08 1.671436e-09 -2.8859296e-05 1.2840919e-09 0.0010566524 -4.3532178e-10
-1.5380101e-07 -0.024522416 -0.00024979375 -2.4662068e-09 -8.566863e-05 1.2674757e-09 0.023920355 -1.3298112e-09
-8.92124e-10 3.5822577e-08 3.1556924e-09 -0.0051951823 -0.02051425 0.011684714 3.6438493e-08 -1.0217808e-08
7.336917e-05 -2.2478582e-06 9.584983e-10 -0.0006633505 0.001952646 0.002309977 -1.9435873e-09 5.097315e-07
-1.8069372e-08 -3.1588883e-09 -1.0435235e-09 0.0028242473 -0.0054541896 -9.724777e-07 -0.008932289 2.8817104e-10
-1.3929725e-06 0.016692247 -0.00017771119 1.1440953e-09 -1.401915e-08 6.446851e-08 1.5172813e-10 -1.7942574e-08
-8.600104e-09 -2.9647158e-09 0.00063301687 0.0001140317 -0.009719312 0.018857544 0.016840689 -0.0012656415
0.011606261 0.010092315 -1.2279655e-08 -0.01742241 -3.3072434e-09 7.9109763e-10 -3.2614311e-09 1.062254e-09
0.003919242 -0.0011946777 0.0021334258 -2.5897542e-09 -7.883241e-09 -7.4147305e-10 -3.1737757e-09 -0.0011485291
-6.7148726e-08 0.0037621048 -0.00024075469 -0.019107142 -5.639114e-09 1.0746801e-10 5.403255e-09 0.007720849
-1.7254148e-08 -2.9696117e-09 0.023321768 -0.023570238 8.4916167e-07 -0.0018437759 1.182921e-10 6.643807e-08
-0.002880686 1.8071763e-05 -0.004221729 5.1979807e-09 0.017864358 -0.0010949337 -0.019087909 0.02389121

gru.weight_ih_l0 f4 [192, 64]
00000000: f414 0234 999c ceb1 9a65 7cb4 eea7 7bb1
00000010: be1e 9637 77f3 96b0 5341 9331 5e55 1131
00000020: 7aca 7939 7b87 8332 bce5 e439 079f c239
00000030: 4604 ca31 8078 6ab4 9a75 b532 5760 6b34
00000040: eeff 6032 a01b 0c32 3c15 e8af eccc 67b7
00000050: 9195 8c31 da09 1632 732f 2639 4b1d 8bb3
00000060: c252 9031 6406 8730 5727 c8b2 3f39 a031
00000070: c367 fdb2 323c 00ba cb7c 6f35 a784 89b9
00000080: 7f40 27b1 4617 0cb4 4c40 3b34 9dca d234
00000090: 628b 4f32 a967 592f e311 18b8 de52 f5b4
000000a0: 2a19 4bb2 156f 1bb9 32ed 83b6 dacd c832
000000b0: 538f a737 3ee5 ef33 2e30 27b0 52f1 beb4
000000c0: 6c1a 59b9 a076 de2e 9684 7232 04fa 5eb1
000000d0: f22c fab3 7586 fe39 80be a02d 6a32 7f39
000000e0: d0a1 ceb9 785a 2db2 2074 a2b0 3ad3 0731
000000f0: e330 85b0 5c86 ff2f cc07 e1b7 51d1 cd31
00000100: ff0e 7ab3 4a27 66b1 5e3c b330 d4f7 7eb0
00000110: 36ae a237 8de4 fa31 63c3 bfb4 e041 1430
00000120: abdc 53b1 91f1 9932 7655 2230 5810 7133
00000130: 022d bd39 1e7e 7bb6 78c2 1738 7d65 7fb2
00000140: 8070 a92e 772f 9db1 180c b835 61d1 2630
00000150: 56d8 8cb3 a8f9 e2b0 0ad3 2034 87c2 d2b9
00000160: 64f1 5539 3b98 cab1 878f 7fb3 9e25 beb5
00000170: 7bb0 45b3 8016 8233 6dcf a5b8 da08 1bb3
00000180: 122e 1931 1cf7 db38 cae6 60b9 84b9 edb0
00000190: 4034 ed39 0980 87af 54a2 2630 52c3 e8b5
000001a0: 3edc 1a38 b8fd 882e d58f 8936 537e 9b32
000001b0: 737a f432 e567 0132 bc63 8a33 0a40 6534
000001c0: 0a4b f82e 1090 6ab9 6482 90b1 383e 1837
000001d0: 401c 1832 3eb4 68b7 af62 2431 b297 c6b1
000001e0: abaa 6a34 49a6 8031 c893 74b3 c459 a6b7
000001f0: 989d 0032 9cb7 f139 408a b431 098a 80b5
00000200: 1024 c62d 55ab 3cb3 e499 9631 3e9c 44b1
00000210: e291 3eb1 6d60 9a35 c6da 19b6 a33c c4b5
00000220: 720d f133 6f07 9c31 fb89 0831 a1c7 1633
00000230: 5212 5332 64d2 1432 6b62 4134 9633 6fb0
00000240: 7caf 13b7 da81 ec2f cdfc 21b3 baa3 1432
00000250: 80ca 0a32 07d5 9bb2 a6c0 2331 fce9 3db0
00000260: f7a7 4bb0 f58e 8738 cfab 98b0 5075 d92c
00000270: f054 8f33 ad95 9532 a8bf 2b30 8b9b a4b2
00000280: a1a3 95b1 1053 c435 6ece a6b1 e81e 66b5
00000290: 8d94 6a33 513f a0b0 a772 4731 a5b2 dbaf
000002a0: 4461 013a 52aa 4bb1 74a4 05b1 1cca 9daf
000002b0: 9d9c eab1 ec04 db2f 62ad 8935 a65a f233
000002c0: 44e2 9331 c7c2 edb1 f9fd 50b2 2ecc 3f38
000002d0: e0cf 4ab3 8ae4 83ad 8a9f 0ab2 2b33 b531
000002e0: 043b 92b2 e82e 7939 7644 2aba 7927 ddb9
000002f0: 5501 0531 d793 9131 e425 cbb9 e463 62b0
00000300: 0f1a 94b0 0b8a 3330 f131 0934 fb86 8bb5
00000310: cf30 5bb4 9cd9 53b8 1665 eb32 ad6b a5b7
00000320: b042 9032 9f1c c4b5 48c9 7039 8a69 4339
00000330: f8ef c0b1 333d 7333 ab94 04b9 22fa 95b1
00000340: 3cb0 99b0 f626 8eb3 93ea 24b1 7541 69b5
00000350: 5c14 ccb8 4b3b 89b7 ec3d 6339 9a4b b7b4
00000360: ae06 6b34 976d 37b9 e0ff e5b2 4670 ee30
00000370: 3fa3 59b3 0afc 3fb9 1c0d 5732 d31d cf32
00000380: 3ae7 1ab1 28d0 05b8 843b 88b2 61b0 cf31
00000390: 2d86 3db2 8254 5b31 74c8 b32f d8e7 a2b9
000003a0: 5b75 1037 23f6 3eb8 1f73 2a31 ce62 9632
000003b0: 77e2 82b9 a13a 1a38 6c41 5e31 11bc e434
000003c0: 96b6 abb5 e39e a4b7 de0c 3132 11b8 60b4
000003d0: e362 61b8 71b7 6832 70df f8b0 a3e0 bb39
000003e0: ad2e 00b3 bed8 0733 953a aaaf 9ed9 1d32
000003f0: a697 29b1 15df 75b2 c4e1 5e30 b4d4 a4b5
1.2114816e-07 -6.013192e-09 -2.3506291e-07 -3.6620764e-09 1.7895709e-05 -1.0983133e-09 4.2856896e-09 2.1148803e-09
0.00023821919 1.5312017e-08 0.00043658714 0.00037121048 5.8794596e-09 -2.1836786e-07 2.1124652e-08 2.1921129e-07
1.3096708e-08 8.155354e-09 -4.2215642e-10 -1.3816385e-05 4.09154e-09 8.733389e-09 0.0001584867 -6.47802e-08
4.20036e-09 9.824359e-10 -2.3300954e-08 4.663121e-09 -2.9500262e-08 -0.00048917823 8.9216036e-07 -0.0002622951
-2.433836e-09 -1.3046983e-07 1.7439123e-07 3.926297e-07 1.2080678e-08 1.9772863e-10 -3.6256282e-05 -4.56951e-07
-1.1821877e-08 -0.00014823333 -3.9317174e-06 2.3376675e-08 1.9974692e-05 1.1171004e-07 -6.0822714e-10 -3.5565841e-07
-0.00020704576 1.0116463e-10 1.41164005e-08 -3.244737e-09 -1.1649708e-07 0.00048546834 1.8274493e-11 0.00024337476
-0.00039411942 -1.00904956e-08 -1.1820056e-09 1.9765154e-09 -9.690918e-10 4.6479698e-10 -2.682572e-05 5.9900818e-09
-5.82213e-08 -3.3491738e-09 1.3041122e-09 -9.2756847e-10 1.9393028e-05 7.301941e-09 -3.5718685e-07 5.39357e-10
-3.0829976e-09 1.7921396e-08 5.9056704e-10 5.612705e-08 0.00036082423 -3.7475324e-06 3.618232e-05 -1.4866029e-08
7.705214e-11 -4.5746975e-09 1.3712588e-06 6.0687994e-10 -6.558609e-08 -1.6514621e-09 1.4977937e-07 -0.00040199255
0.00020403188 -5.8962804e-09 -5.950235e-08 -1.4167051e-06 -4.6028145e-08 6.0576895e-08 -7.906449e-05 -3.60968e-08
2.2290618e-09 0.000104887615 -0.0002144828 -1.7296746e-09 0.00045243092 -2.4647331e-10 6.062113e-10 -1.7342193e-06
3.6921578e-05 6.2296335e-11 4.0996624e-06 1.810182e-08 2.8461022e-08 7.532411e-09 6.444267e-08 2.1350584e-07
1.1291064e-10 -0.00022369646 -4.2057753e-09 9.074392e-06 8.853988e-09 -1.38702435e-05 2.3921236e-09 -5.779804e-09
2.1855037e-07 3.7441947e-09 -5.6945083e-08 -1.9830542e-05 7.486413e-09 0.00046103902 5.2544067e-09 -9.576917e-07
2.2526009e-11 -4.3927987e-08 4.38307e-09 -2.8610567e-09 -2.7731564e-09 1.1501958e-06 -2.292612e-06 -1.4620786e-06
1.1224883e-07 4.5410427e-09 1.9869038e-09 3.5106158e-08 1.2285982e-08 8.662571e-09 1.801033e-07 -8.7021e-10
-8.802741e-06 4.3020415e-10 -3.7715655e-08 8.651961e-09 8.0787e-09 -1.8141249e-08 2.382913e-09 -6.909031e-10
-7.408966e-10 6.4639295e-05 -1.1108287e-09 6.1805353e-12 6.6744064e-08 1.7413948e-08 6.24818e-10 -1.9162846e-08
-4.355073e-09 1.4627312e-06 -4.854704e-09 -8.572665e-07 5.4617477e-08 -1.1659528e-09 2.9023484e-09 -3.9962803e-10
0.0004935453 -2.9637204e-09 -1.9447528e-09 -2.870174e-10 -6.828101e-09 3.9839365e-10 1.0257756e-06 1.1285492e-07
4.3039865e-09 -6.9197514e-09 -1.216494e-08 4.5728106e-05 -4.722085e-08 -1.4994467e-11 -8.068932e-09 5.2736104e-09
-1.7023474e-08 0.00023763964 -0.0006495187 -0.00042181814 1.9354804e-09 4.236863e-09 -0.00038747408 -8.2360274e-10
-1.0775824e-09 6.531599e-10 1.2777288e-07 -1.0395592e-06 -2.0413721e-07 -5.0508985e-05 2.740357e-08 -1.9719673e-05
1.6794132e-08 -1.4611468e-06 0.00022963167 0.00018635966 -5.6152167e-09 5.6633507e-08 -0.00012643884 -4.3649075e-09
-1.1182304e-09 -6.619477e-08 -2.399848e-09 -8.6894516e-07 -9.73127e-05 -1.6359283e-05 0.00021671475 -3.4141414e-07
2.188851e-07 -0.00017493065 -2.6775467e-08 1.7348689e-09 -5.067272e-08 -0.00018309071 1.2517628e-08 2.4111534e-08
-2.2541387e-09 -3.190353e-05 -1.5859548e-08 6.044545e-09 -1.1031756e-08 3.1916731e-09 3.270234e-10 -0.00031071785
8.610393e-06 -4.5528763e-05 2.4803695e-09 1.750723e-08 -0.00024964262 3.6771064e-05 3.234244e-09 4.2605146e-07
-1.2793632e-06 -1.962431e-05 1.0305682e-08 -2.0928589e-07 -5.3736276e-05 1.3545887e-08 -1.810788e-09 0.00035834787
-2.9844774e-08 3.1629263e-08 -3.0964445e-10 9.188083e-09 -2.467894e-09 -1.43116e-08 8.108396e-10 -1.2280857e-06

gru.weight_hh_l0 f4 [192, 64]
00000000: e9b6 b4b5 e694 61ae 6d08 c5b1 d1b7 9cb5
00000010: ab67 bdb5 b04e 86b3 9623 8f32 e39c 9f31
00000020: 4255 4339 2620 1a32 f135 5cb1 fc74 c0b1
00000030: e006 0731 a894 2e32 127c 6b34 06ad 0435
00000040: 39b3 0aba e24e 5c31 c997 7d30 f476 40b2
00000050: 1ef3 c12f 1642 6cb4 6f25 7e33 d294 31b3
00000060: 8bd6 deaf ab0f c5b5 111b 99b0 ae19 5d30
00000070: 4eed c430 0502 2632 0706 92b2 015a f8b9
00000080: c238 15b9 3b29 24b8 cddc 4c33 9013 cf38
00000090: 8ad2 8d30 df75 1532 872c 9cb0 efab 5b30
000000a0: 9d25 8e36 fa6b e1b9 e6c2 a831 9788 d3b8
000000b0: e2c0 07b1 f4f8 1632 2aa8 b9b1 089b 5bb4
000000c0: 0a90 f637 76c0 e4b9 7ed2 3c31 13c4 c9b9
000000d0: dbd3 4d32 6f93 d8b5 bd7b b8b2 2e64 0f3a
000000e0: fa3b c1b5 faa7 c9b1 77e6 87b8 8a82 cf39
000000f0: 43dd 8631 5bb8 6934 b236 6cb4 124a 5c34
00000100: 67ca d3b9 1a76 9d31 a571 f832 f53c f6b3
00000110: df55 8a34 fd74 88b8 9fb2 db36 88bf 9a2d
00000120: 1330 2938 3476 542e 5763 b8b0 b759 0930
00000130: acf2 a8b1 275d e033 e154 bab2 8bf6 bcb0
00000140: 1799 ad39 c909 6a39 c856 22b9 8993 8fb3
00000150: 407a da2d 119a 3a34 d52a 8132 1cba b5b0
00000160: 6e95 8f31 2365 a439 14bd 102f 0423 1332
00000170: 561b 9331 23e2 bc30 dac4 3b35 8200 23b2
00000180: 92fd fa31 cabe cfb7 eea4 57b9 3aab df37
00000190: 9462 a033 6bf4 5d32 64b6 09b8 2a8f b4b5
000001a0: 201e 70b5 ad71 0eb6 f4e9 8939 9003 44b7
000001b0: b86d eb36 6b61 5bb1 04a2 6e31 24f2 04ba
000001c0: 4a01 09b9 8b91 9231 e0e3 0ab2 b28e 0aba
000001d0: 275d 97b2 4e27 66b4 e657 0bb6 c789 d0b8
000001e0: 88cd fb32 1b7d 0fb1 f616 39b9 c4f3 6eb0
000001f0: 748b bf38 3746 0732 b30a c435 9f5b f239
00000200: 8cad 4938 6f93 c831 10dc 01b8 ea9c 0f3a
00000210: 6351 e531 a9f3 cdb1 cf15 6eb1 f121 1639
00000220: 5140 e5b9 6af6 9137 c4c1 14b4 0e94 e3b8
00000230: 007f 8233 f0ae 7fb5 69a6 eeb2 5ae2 90b3
00000240: 2879 30b2 b2f8 ac32 737c 41b2 1ee3 8e32
00000250: dfe4 5831 d218 5232 a3b5 97b8 4e93 243a
00000260: add8 6bb4 d94c c830 8156 ce31 dc49 ae31
00000270: dc9d 2734 4607 e3b9 9f3e f936 bf0f 62b3
00000280: 28a0 14b3 6749 acb5 18f7 0134 6aa4 ac31
00000290: 6d7e bdb5 8ac4 41b0 0aa4 8cb0 c912 d231
000002a0: bd4f ceae 528b 3db2 12b8 8830 8fbb 2f31
000002b0: ab72 ce31 6642 b636 032e 9631 2d9a 2037
000002c0: 122e 8db0 19a3 c730 98d8 1aba 5b53 6bb4
000002d0: 3a1d 8230 b2c6 a134 4ba1 1e37 a5a2 2fb4
000002e0: bf06 7f32 ac39 3939 103b 4caf 75fc 6a30
000002f0: 1b69 73b3 885d 2231 5a57 cc39 38d9 ec30
00000300: 9ab5 03b2 29e1 2b3a a9fa cd30 8236 15b0
00000310: 4ab6 d0b1 a9ba ac32 9bb8 7cb5 fe72 45b1
00000320: 1da9 5230 5ab7 03b3 4d2e 9432 c76e a238
00000330: 3273 1f3a 021c 0334 55eb 8733 262f 49b1
00000340: 973f 0f32 6f54 c435 e254 bcb4 9b86 2031
00000350: 9e57 ab35 0f72 2d2f bc08 d731 78d0 6ab1
00000360: 078f 1036 ec90 4433 1df2 1138 c76e a238
00000370: fcde 5b32 57b7 f932 8ed0 7db1 5bea b72f
00000380: 51fe 6a34 3f1f b631 00c0 c030 d60d 9c31
00000390: c3f6 de32 cd97 30b2 f277 1231 3c87 c0b5
000003a0: 9f8c 02ba cdca 67b9 296c 5731 4d14 c4b5
000003b0: c075 d22d 3649 4d35 c04b 45b4 c745 ddb4
000003c0: 2370 8d31 e433 8f33 ccf7 6733 7467 8fb6
000003d0: 4a47 fd31 9941 4bb2 3043 c338 b7f7 00ba
000003e0: 3754 b231 2bfe c335 6ef2 5031 5576 73b9
000003f0: e9a2 e7b3 86e7 81b2 fd80 c135 f8ed 5eb5
-1.3464279e-06 -5.1291325e-11 -5.7344125e-09 -1.1676403e-06 -1.4111769e-06 -6.2541744e-08 1.6663574e-08 4.645345e-09
0.0001862841 8.9712895e-09 -3.2044876e-09 -5.601235e-09 1.9648994e-09 1.01619335e-08 2.1931217e-07 4.9425614e-07
-0.00052909885 3.2059053e-09 9.2256563e-10 -1.1202918e-08 3.527924e-10 -2.2003255e-07 5.917303e-08 -4.1346375e-08
-4.0534007e-10 -1.4682204e-06 -1.1139908e-09 8.0435825e-10 1.4328323e-09 9.662931e-09 -1.6999378e-08 -0.00047369304
-0.00014230891 -3.9139046e-05 4.769827e-08 9.874173e-05 1.0318939e-09 8.699742e-09 -1.1363149e-09 7.991607e-10
4.2363085e-06 -0.00042995793 4.911601e-09 -0.00010086706 -1.9754727e-09 8.7877545e-09 -5.4033267e-09 -2.0452364e-07
2.9392559e-05 -0.00043630943 2.7477252e-09 -0.00038483794 1.1980741e-08 -1.6136163e-06 -2.1476689e-08 0.0005469945
-1.4397076e-06 -5.8689666e-09 -6.480229e-05 0.00039579376 3.925068e-09 2.1766884e-07 -2.1999111e-07 2.0516043e-07
-0.00040395858 4.582728e-09 2.892268e-08 -1.1466356e-07 2.5766983e-07 -6.506776e-05 6.547503e-06 1.759283e-11
4.0337512e-05 4.8308205e-11 -1.3415996e-09 4.99678e-10 -4.917032e-09 1.0447757e-07 -2.1691848e-08 -1.3748872e-09
0.00033111192 0.00022319624 -0.00015481852 -6.685793e-08 2.483802e-11 1.7378649e-07 1.5037054e-08 -1.3222379e-09
4.178836e-09 0.0003135587 1.3163898e-10 8.564488e-09 4.281371e-09 1.3743072e-09 6.9949385e-07 -9.487964e-09
7.304785e-09 -2.4765166e-05 -0.00020565439 2.6663405e-05 7.468512e-08 1.2919467e-08 -3.283321e-05 -1.3452711e-06
-8.9450805e-07 -2.1225817e-06 0.00026304985 -1.168334e-05 7.0163187e-06 -3.192407e-09 3.4725653e-09 -0.0005071482
-0.00013065818 4.2657056e-09 -8.08447e-09 -0.00052855455 -1.7621074e-08 -2.1434718e-07 -2.0763778e-06 -9.943876e-05
2.931371e-08 -2.0880353e-09 -0.00017651528 -8.693031e-10 9.133565e-05 7.873999e-09 1.4606252e-06 0.000462261
4.8083763e-05 5.8375274e-09 -3.0960946e-05 0.0005478399 6.6740298e-09 -5.993986e-09 -3.4645955e-09 0.00014317759
-0.00043726203 1.7400092e-05 -1.3854066e-07 -0.00010851781 6.076698e-08 -9.524947e-07 -2.7782521e-08 -6.746696e-08
-1.0272096e-08 2.0136529e-08 -1.1262375e-08 1.6634257e-08 3.1562235e-09 1.2229252e-08 -7.2340736e-05 0.00062780536
-2.1964907e-07 1.4573757e-09 6.0052234e-09 5.0724633e-09 1.5610516e-07 -0.00043302233 7.4280683e-06 -5.2634046e-08
-3.4604597e-08 -1.2836362e-06 1.2103953e-07 5.0245506e-09 -1.4118392e-06 -7.049229e-10 -1.0232963e-09 6.11394e-09
-9.38196e-11 -1.1032926e-08 9.947618e-10 2.5572466e-09 6.0084253e-09 5.4317525e-06 4.3708055e-09 9.57264e-06
-1.0272194e-09 1.4525511e-09 -0.0005906909 -2.1916405e-07 9.467052e-10 3.0133157e-07 9.455088e-06 -1.6357315e-07
1.4844487e-08 0.0001766446 -1.8574675e-10 8.5487467e-10 -5.667344e-08 2.362727e-09 0.00038974994 1.7232997e-09
-7.666495e-09 0.0006556684 1.4986955e-09 -5.4283344e-10 -6.0743206e-09 2.0108319e-08 -9.414595e-07 -2.8732638e-09
7.663788e-10 -3.066757e-08 1.7250523e-08 7.745396e-05 0.0006082534 1.2210515e-07 6.329234e-08 -2.927615e-09
8.338154e-09 1.4627711e-06 -3.507949e-07 2.3359579e-09 1.2765993e-06 1.577478e-10 6.2583165e-09 -3.4169982e-09
2.1540925e-06 4.5766612e-08 3.479618e-05 7.745396e-05 1.27981785e-08 2.9070788e-08 -3.6934895e-09 3.3454026e-10
2.1885468e-07 5.3004494e-09 1.4024408e-09 4.5417705e-09 2.5956416e-08 -1.0279064e-08 2.1313977e-09 -1.4344473e-06
-0.00049800606 -0.00022105426 3.13481e-09 -1.4609046e-06 2.3926527e-11 7.6474987e-07 -1.8374612e-07 -4.1215227e-07
4.1163886e-09 6.668395e-08 5.400925e-08 -4.2737756e-06 7.3713737e-09 -1.183107e-08 9.310839e-05 -0.0004919725
5.190056e-09 1.4602605e-06 3.040579e-09 -0.00023218368 -1.0786409e-07 -1.5122861e-08 1.4417161e-06 -8.3047735e-07

gru.bias_ih_l0 f4 [192]
00000000: 11ac f531 9118 dcb0 ca30 8b33 8e1e bc37
00000010: 7e18 fb33 8760 9132 d920 8cb2 b27c 18b2
00000020: 091c 6534 c01b db38 ef52 11b0 bb48 6731
00000030: 2ed8 edb6 a88a aa38 3cda ab31 d9ee 44b1
00000040: 3494 6bb4 1529 90af be20 9032 da41 9eb8
00000050: 6052 2134 ecb2 3bb6 dbf1 f72e 4e16 6935
00000060: 952d 88b3 30c2 4231 2c16 4539 a843 bb35
00000070: 750e 0033 cc4d 97b2 4e1d df33 3a5d 91b0
00000080: b182 0c2f 553e cd31 f891 2e30 42b4 0f34
00000090: e3b6 6bb7 b20e 3834 0004 7a2f ead9 5a33
000000a0: 7047 fdaf 958c a0b8 e7c6 7fb8 da3f e6b4
000000b0: c9e1 53b3 999b 8638 79f5 5439 da0a 4d2f
000000c0: 3803 10b7 4237 cf32 cc19 3c39 1429 5fae
000000d0: 9a2a 3db4 08f3 a935 d61a 7835 2f93 b4b9
000000e0: 0677 97b2 9436 3cb2 d636 2e38 44ba 58b4
000000f0: 828c 1f31 189e 5735 7af1 d6b2 351a 50b3
00000100: eef2 82b8 5bb3 9bb1 4e89 9131 7ddf 32b3
00000110: db76 9032 fef4 0339 ee60 c8ae 95d0 02ba
00000120: b8c0 0233 49ee f4b1 8691 05ba d4cb ca32
00000130: db8c b1b1 d15f 1830 440e 7e31 427a 6534
00000140: c2bf 0c3a 2e22 7a30 4240 4830 3187 65b1
00000150: 39bf 3b35 abaf aa35 a491 03b3 b46d acb3
00000160: ae80 9731 2ca9 0a31 842f 59b4 f7ba 0a32
00000170: 07ad 0e3a 0beb 4933 7f5a 6c34 d4de feb2
00000180: 8a78 b4b1 6c2a 27ba 12bc 9930 15d1 0e3a
00000190: 1f5e 10b3 aa3e a8af 4f44 8fb3 254e 0832
000001a0: ab1c 0139 46aa 0131 0346 0ab9 fe2c 3937
000001b0: fc9d b3b8 601c 13b1 e6e9 bb39 a438 5c34
000001c0: 8271 0133 dc3b 49af 6215 6eb1 dc98 84b5
000001d0: 9cce 8431 6cb4 a335 49c1 b439 7a16 c3b6
000001e0: cbf8 d739 265a bdb0 2a28 69b4 50c6 ee2f
000001f0: 67f4 92b1 0c43 6c30 7840 d136 b076 f930
00000200: 2e82 a631 54f3 2530 8b48 0639 0a39 4632
00000210: eecf b330 b57a beb0 6dc9 39af 8640 6333
00000220: 1e6b b6b2 2fb2 ed30 439d 0cb8 20f4 51b5
00000230: e7fb 8eb4 043c 182f 4532 0bb2 25c1 6933
00000240: 57c8 cab1 e4f1 df31 134f 9d39 384d 0c3a
00000250: 9f39 3db2 dd26 13b0 4678 44b0 3ab1 49b4
00000260: 5f66 f6b1 59a1 fa30 b875 be30 9a5a 69b7
00000270: cdf4 21b2 c23a 8930 c6bd ecaf e279 9930
00000280: c62d dcb1 5610 ca30 dba4 ff33 6015 6fae
00000290: ea10 8eb0 6b5f 51b2 32f1 1ab1 c1e4 3238
000002a0: 7a94 3ab4 8d08 5432 42ae 0cb1 7e68 8d33
000002b0: 4cc2 9b36 d834 ee30 8229 49b2 8590 7db9
000002c0: 5200 78b1 c7fd 00b1 0265 9b31 5ad3 5033
000002d0: 0b17 2b38 a83b 36b1 ff33 0cb7 cc78 d1b8
000002e0: df1f 3ab0 28b7 fa30 1f76 24ba 7c78 3baf
000002f0: 0e2a 4d39 295e 9a30 c09b 7332 ac8e 7032
7.15e-09 -1.6014089e-09 6.4815666e-08 2.2425575e-05 1.16925534e-07 1.6924117e-08 -1.6313082e-08 -8.875917e-09
2.1337486e-07 0.000104479026 -5.286855e-10 3.3656267e-09 -7.088317e-06 8.1320584e-05 5.0015654e-09 -2.8657523e-09
-2.1939996e-07 -2.6222638e-10 1.6778696e-08 -7.546293e-05 1.5024261e-07 -2.7969318e-06 1.1275222e-10 8.683172e-07
-6.341285e-08 2.8341098e-09 0.00018795644 1.3952276e-06 2.981547e-08 -1.7614092e-08 1.0389577e-07 -1.0576635e-09
1.2779357e-10 5.9733716e-09 6.3508265e-10 1.338349e-07 -1.4049673e-05 1.7141681e-07 2.2738789e-10 5.0955272e-08
-4.607119e-10 -7.65558e-05 -6.098198e-05 -4.2887297e-07 -4.9332616e-08 6.4186e-05 0.00020309341 1.8648497e-10
-8.583818e-06 2.41231e-08 0.00017938687 -5.0740814e-11 -1.7617495e-07 1.2662213e-06 9.242625e-07 -0.00034441936
-1.763284e-08 -1.095545e-08 4.1535903e-05 -2.018433e-07 2.3217415e-09 8.03238e-07 -2.502269e-08 -4.845261e-08
-6.244132e-05 -4.531484e-09 4.235665e-09 -4.1647116e-08 1.6817856e-08 0.000125844 -9.112165e-11 -0.00049901876
3.044326e-08 -7.1284245e-09 -0.0005095232 2.3608585e-08 -5.1673914e-09 5.543344e-10 3.6969974e-09 2.1371764e-07
0.00053691503 9.099804e-10 7.285089e-10 -3.3400733e-09 6.9941194e-07 1.2717113e-06 -3.0633274e-08 -8.029329e-08
4.4093076e-09 2.0177806e-09 -2.0226986e-07 8.075168e-09 0.0005442653 4.701273e-08 2.2012135e-07 -2.9670822e-08
-5.252393e-09 -0.0006376866 1.1185668e-09 0.0005448026 -3.3613215e-08 -3.0603547e-10 -6.671382e-08 7.93401e-09
0.00012313078 1.886876e-09 -0.00013186787 1.1037335e-05 -8.564812e-05 -2.1407445e-09 0.00035841687 2.0509702e-07
3.0138388e-08 -1.830211e-10 -3.4645713e-09 -9.879254e-07 3.8651944e-09 1.2196956e-06 0.00034476284 -5.8140695e-06
0.0004119336 -1.3777182e-09 -2.1714428e-07 4.3432857e-10 -4.2769446e-09 8.595158e-10 6.2361905e-06 1.8150867e-09
4.8460356e-09 6.037244e-10 0.0001280626 1.1538086e-08 1.3083061e-09 -1.3859195e-09 -1.6897213e-10 5.291124e-08
-2.12363e-08 1.7294662e-09 -3.3525062e-05 -7.8213816e-07 -2.6632844e-07 1.3845641e-10 -8.102295e-09 5.4425204e-08
-5.9017498e-09 6.517654e-09 0.00030004288 0.00053520827 -1.1014349e-08 -5.3533517e-10 -7.1475303e-10 -1.8784058e-07
-7.1711805e-09 1.8235752e-09 1.3857777e-09 -1.3908977e-05 -9.427095e-09 9.984762e-10 -4.3062992e-10 1.1166856e-09
-6.4080465e-09 1.4702077e-09 1.190435e-07 -5.4361293e-11 -1.0336667e-09 -1.2187097e-08 -2.2547053e-09 4.265155e-05
-1.7376615e-07 1.2341968e-08 -2.0471735e-09 6.584831e-08 4.641979e-06 1.7331798e-09 -1.1709178e-08 -0.00024181798
-3.6088932e-09 -1.8770707e-09 4.522577e-09 4.8620997e-08 4.0791037e-05 -2.6518396e-09 -8.356757e-06 -9.988397e-05
-6.77117e-10 1.824195e-09 -0.0006273705 -1.7050356e-10 0.0001956599 1.1231737e-09 1.4179875e-08 1.40022784e-08

gru.bias_hh_l0 f4 [192]
00000000: 50e3 8a34 cfc6 8230 fa1c 44b2 dddb 50b4
00000010: 840b ceae 9b44 67b1 a7a4 7231 3f5e 59b2
00000020: d148 46ae d627 d0b2 9aad 21b1 a0d4 63b8
00000030: 0af1 6a30 f99a c035 3f2d c0b5 84be 4ab7
00000040: 5ea1 4fb2 c03d 0334 a0cb 4c32 461b 95b4
00000050: e28b 0d35 2188 84b2 487c 23b0 7ed8 0737
00000060: e933 fcb1 a407 6532 6134 0133 1bc5 9038
00000070: f1c1 a631 f38b a130 c355 fd33 646e 49b0
00000080: f3c8 c037 c8ef bab0 ebda 7cb5 30de 6fb2
00000090: ef87 8a30 98f0 fab1 0e6e 3daf 1e1a ab35
000000a0: 0262 9931 b4f2 1cb9 c870 bc35 5912 8d31
000000b0: a6ad efb8 a83a 57b3 94a4 08ba 6bb9 273a
000000c0: 5631 8132 6580 b131 5394 1b39 504e eb31
000000d0: e077 66b1 64da 2d30 8f18 ba38 d385 0035
000000e0: 2421 0531 1ac7 4732 0e2a 5b33 eceb bdb1
000000f0: ee54 de31 b9ce 2db2 9192 87b1 a4aa 0ab0
00000100: bc88 1db1 41f9 e033 2771 9e34 c8a4 dd32
00000110: 6938 8ab7 9aa3 4eb8 7868 14b2 bb61 43b8
00000120: 693c 50b0 fecf 11b3 23a5 0330 e443 e631
00000130: b220 83b6 68dd 59b3 efbc 87b3 f910 4c35
00000140: 241c f5b6 ce01 1037 a4cd 9a31 9659 8f33
00000150: 5868 6c35 38f9 9bb1 9a84 9731 be06 e133
00000160: 28a9 0331 00f0 4130 3b3c d931 c9e7 bcb5
00000170: d6fd cc39 ce18 a934 3a42 9d30 b386 3131
00000180: 584a 2639 72f7 9632 3146 0ab2 8910 94b1
00000190: e428 9cb6 11c1 e6b4 a5ea 1735 d396 1b3a
000001a0: 0ec1 b6b2 da60 d0b9 e7c7 9a38 7265 76b1
000001b0: 92e2 31b7 fa35 57b5 22c0 0f3a e468 a2b1
000001c0: e6c3 e1b9 ea97 d0b0 6c2e 34b8 c4c7 c8b2
000001d0: e869 8535 5a8c 40b9 cce2 b3b5 87a3 da30
000001e0: 1e42 3630 7d17 81b5 60d7 4d32 5a77 f0af
000001f0: 8f49 0c31 a243 7039 04e2 5332 7b1e ce31
00000200: a169 65b4 2455 ec33 5dd1 8f30 1f58 0638
00000210: bc4b c035 90ae 11b0 d121 d6b4 1aa5 8fb3
00000220: 3b5c f3b7 6880 9832 978c 2134 467e 95b1
00000230: 8eca 1ab2 0317 2739 4970 9033 efee 69b8
00000240: efc9 1f3a b67a a2b2 52f5 c731 2e52 4baf
00000250: aafc 87b6 f4c7 09b4 c445 7db1 716c c439
00000260: 9487 78b1 ca17 eb30 aaf9 f0b8 6154 6db3
00000270: 9622 ff31 0d0f 1a32 de70 9a38 2d47 e9b0
00000280: 5813 4db0 1b15 7e38 e840 bd35 fc9b a232
00000290: 5248 3335 ad24 4030 702e 4f31 1ccc a239
000002a0: d3b0 1bb1 63ca b4b1 66bc 3e33 7753 42b5
000002b0: e7d6 a039 452a 4834 a692 2031 6afb 7a32
000002c0: aea3 6cb9 3822 d034 a2ec abb6 a7f0 5234
000002d0: c6bb 3db0 5004 84b9 444b 8caf 3f38 2db4
000002e0: a00a 213a c297 2caf 8163 5fb9 1abe e430
000002f0: e490 c435 ef49 83af b0bc c8b9 0a79 62b4
2.5869895e-07 9.51525e-10 -1.141529e-08 -1.9451495e-07 -9.369841e-11 -3.3653922e-09 3.5309229e-09 -1.26524915e-08
-4.508466e-11 -2.4232502e-08 -2.3527265e-09 -5.431904e-05 8.547124e-10 1.4350218e-06 -1.4318283e-06 -1.2084496e-05
-1.20856765e-08 1.222279e-07 1.1920662e-08 -2.7773257e-07 5.273015e-07 -1.5428727e-08 -5.947567e-10 8.097033e-06
-7.3400668e-09 1.3331292e-08 3.008279e-08 6.903169e-05 4.8532844e-09 1.1754068e-09 1.17968305e-07 -7.328025e-10
2.2981758e-05 -1.3601431e-09 -9.4195883e-07 -1.39621505e-08 1.0079456e-09 -7.30331e-09 -1.7228549e-10 1.2748094e-06
4.4640283e-09 -0.00014967733 1.4039915e-06 4.105726e-09 -0.000114287526 -5.0111936e-08 -0.00052125123 0.0006398174
1.5040012e-08 5.1659748e-09 0.00014837207 6.8483033e-09 -3.3537546e-09 6.3247385e-10 8.8737455e-05 4.7878456e-07
1.9372886e-09 1.1628595e-08 5.102816e-08 -5.527445e-09 6.4707057e-09 -1.0116929e-08 -3.94568e-09 -5.04466e-10
-2.2924231e-09 1.0476152e-07 2.9512123e-07 2.580272e-08 -1.647715e-05 -4.9266593e-05 -8.638487e-09 -4.658264e-05
-7.5755807e-10 -3.394961e-08 4.7892196e-10 6.7015993e-09 -3.9079105e-06 -5.0725617e-08 -6.320794e-08 7.602062e-07
-7.304845e-06 8.583489e-06 4.5053685e-09 6.675252e-08 8.806869e-07 -4.5394266e-09 4.4097535e-09 1.04786054e-07
1.9159163e-09 7.055405e-10 6.3223786e-09 -1.407455e-06 0.00039099035 3.149675e-07 1.1442076e-09 2.5833458e-09
0.00015858689 1.7574823e-08 -8.048617e-09 -4.3092467e-09 -4.6539226e-06 -4.2981313e-07 5.6593336e-07 0.00059352553
-2.127538e-08 -0.00039745012 7.380527e-05 -3.5855376e-09 -1.0602775e-05 -8.017229e-07 0.0005483647 -4.726745e-09
-0.000430613 -1.5177168e-09 -4.2958578e-05 -2.3373907e-08 9.940095e-07 -0.00018362832 -1.3402546e-06 1.5908065e-09
6.630517e-10 -9.618085e-07 1.1981541e-08 -4.374055e-10 2.0414495e-09 0.00022913379 1.23332065e-08 5.9988543e-09
-2.1365715e-07 1.10050934e-07 1.0464124e-09 3.203016e-05 1.4327156e-06 -5.299876e-10 -3.988521e-07 -6.688988e-08
-2.9010806e-05 1.7753521e-08 1.504544e-07 -4.3508264e-09 -9.010035e-09 0.00015934934 6.725947e-08 -5.5774053e-05
0.0006095459 -1.8915085e-08 5.819552e-09 -1.8491939e-10 -4.0527275e-06 -1.2831862e-07 -3.6856003e-09 0.00037464828
-3.6165817e-09 1.7105262e-09 -0.00011490595 -5.5257605e-08 7.4254087e-09 8.967402e-09 7.3643154e-05 -1.6973211e-09
-7.4606055e-10 6.0577975e-05 1.4100488e-06 1.8930216e-08 6.6787936e-07 6.990131e-10 3.0148861e-09 0.0003105112
-2.2655982e-09 -5.261698e-09 4.440917e-08 -7.239209e-07 0.00030677693 1.8641829e-07 2.3366424e-09 1.460908e-08
-0.0002256769 3.8767917e-07 -5.123745e-06 1.9645323e-07 -6.902464e-10 -0.00025180215 -2.551933e-10 -1.6132343e-07
0.0006143246 -1.5697224e-10 -0.00021304005 1.6643213e-09 1.4645307e-06 -2.3881294e-10 -0.00038287556 -2.1091924e-07

heads.gdp.weight f4 [1, 64]
00000000: baef ceb2 3830 91bd 49d6 a4b9 f230 9832
00000010: 678e 3dbd c2a6 4db4 4538 7dbd dc60 6fad
00000020: d312 32bc 2e69 57b9 5c0c 1c3c b2c4 f83c
00000030: d548 a4bd 6cdc ffb2 d54d 63bd 15f8 59bd
00000040: 72d5 c8b9 574e c23d 9c55 a73c 69d4 313d
00000050: e2b7 3c3d 4930 95bc 67f0 a1bd 5306 5abd
00000060: a394 a33b 6e8d b3bd a3fc 913d b659 3ab0
00000070: 03f7 b73c 8fcc b83d c4a4 80b9 8b6b a3bd
00000080: b094 ee3d ea78 aab9 d12a e03b a801 2cbe
00000090: c285 2eb1 ff14 a0bd ab5a 963b b080 323d
000000a0: 4fe2 b1bc cffd 943d 253d 08bd a075 933d
000000b0: 310e 04ba a9d1 88bd 38c4 8bbd 062a 863d
000000c0: 3861 75bb 91b1 c73c c92c 2fbc 55b3 1ebd
000000d0: f805 903d f49a 143d fc12 8c3c 694f 1fbc
000000e0: 693f 773b 8628 8e3d 2c0b a4bc 2124 eebd
000000f0: f872 93bd 3633 983d 00ff 473b 8e97 4d3c
-2.4090571e-08 -0.07089275 -0.00031440172 1.7717387e-08 -0.046278384 -1.9152779e-07 -0.06182124 -1.3607084e-11
-0.010868746 -0.0002054318 0.009524431 0.03036723 -0.08021704 -2.9786143e-08 -0.05549415 -0.053215105
-0.00038306002 0.094875984 0.020426564 0.04341546 0.0460738 -0.0182115 -0.07907181 -0.053228687
0.004992084 -0.0876721 0.07128265 -6.779389e-10 0.022456652 0.090233915 -0.00024536822 -0.079794966
0.11649454 -0.00032515015 0.0068410416 -0.16797507 -2.5396365e-09 -0.07816505 0.004588445 0.043579757
-0.021714358 0.07274973 -0.033261437 0.072001696 -0.0005037515 -0.066806145 -0.06824535 0.06550984
-0.003744198 0.024376662 -0.01069183 -0.038745243 0.070323884 0.036280587 0.017098896 -0.009723523
0.0037727004 0.06941323 -0.020024858 -0.11627985 -0.07199663 0.07431643 0.0030516982 0.0125483405

heads.cpi.weight f4 [1, 64]
00000000: 5caa 0cb1 ad63 53bb f052 c62f 6347 9a39
00000010: 6d9a cbbc 2fa6 a734 8838 11bd 5195 8d33
00000020: b8c1 89bd 643a d133 eb67 99bd 4267 863d
00000030: 4bca 073d 62fa 1431 1735 31bd 14a4 36bd
00000040: a925 ccb1 aacc 82bd a994 ef3b 9ebf 943d
00000050: a1b6 84bc a929 82bc b452 6abd d044 7637
00000060: fd04 ae3d a689 a8bd 4e2f 483c a47d 852f
00000070: 1bca 0a3d abfd 4f3b 53a4 ee36 4a87 98bd
00000080: 8bc0 b1bd d619 6ebd cc6f af3c 16cb 6c3d
00000090: ffcc fc34 1efd 863d 90ff 25bb 53c8 fa3c
000000a0: 6ad7 953c 0063 b4bd 88ec 133d 02f8 8a3c
000000b0: 2c25 b1b1 95ad eebb bc30 613d 2227 83bd
000000c0: 9c47 cf3b 9cb2 b03a d2f3 6d3c d153 83bd
000000d0: 2c46 9ebd af2d 3d3b eb81 073b 0ee8 943b
000000e0: 91fb c33d 07a9 8b3d 5399 adbd 5806 283d
000000f0: 62db adbc 16a9 bc3d 8841 443d e64d ec3c
-2.046952e-09 -0.0032255456 3.607492e-10 0.00029426356 -0.02485391 3.1227088e-07 -0.035454303 6.592985e-08
-0.06726402 9.742942e-08 -0.07490524 0.065626636 0.033151906 2.167916e-09 -0.04326352 -0.04459007
-5.941463e-09 -0.06386693 0.007311423 0.072631106 -0.016200365 -0.015889006 -0.057207778 1.4678764e-05
0.08497045 -0.08229379 0.01221831 2.4281832e-10 0.03388415 0.0031736891 7.1120826e-06 -0.07447679
-0.08679303 -0.058130108 0.021415614 0.057810865 4.7087812e-07 0.06591247 -0.002532933 0.0306131
0.018291194 -0.08807945 0.036114246 0.016963962 -5.155604e-09 -0.007283876 0.054978117 -0.06403948
0.006325675 0.0013480964 0.014523463 -0.06412471 -0.07728228 0.002886634 0.0020676802 0.0045442646
0.09569467 0.06819349 -0.0847651 0.041021675 -0.021222774 0.09211938 0.047914058 0.028845739

heads.fx.weight f4 [1, 64]
00000000: 1970 46b1 20ba c33c c7db 572f 6e99 82b1
00000010: 9534 0c3c 0759 8032 a853 6b3d f013 7338
00000020: 6942 da3c 76ca 1c30 90c2 863d 824c 853b
00000030: 6cdd 6e3c bba0 e6b2 cba0 17bd 6d5d e9bc
00000040: 3ad2 d7b0 0551 adbd 4e0d 60bd 493c aa3c
00000050: fdad 09bd e221 513b 15dd fe3d 1a9f 633d
00000060: 2047 033e e718 cabd 92d6 0d3c e870 ae35
00000070: 00bf 043d 41c0 cc3c f7d4 4431 b45e 06bd
00000080: cf51 cd3a 4563 68bd 703a f73b 58ab fcbb
00000090: a58e 1639 c1b5 323d 7e12 2fbd 784e b73c
000000a0: b4e6 0bbd 3ed9 96bc fbdd a13c ad95 4abb
000000b0: df1a c130 5613 eabc 4a59 0c3b 1014 213c
000000c0: fbb5 8bbd 2cab afbb 6862 5dbc 4832 783d
000000d0: 9fa1 dfbd 50ab 30bb f78e 5fbd 8d46 f83d
000000e0: a706 83bc 4942 9ebd 2978 013d 6a0d 9fbb
000000f0: 4710 ab3d c3fa 303d a6dc abbd e717 403c
-2.8876512e-09 0.023892462 1.9632217e-10 -3.800941e-09 0.008557458 1.4941646e-08 0.057452828 5.7954283e-05
0.026642995 5.7040184e-10 0.065800786 0.0040679583 0.014579158 -2.6848616e-08 -0.03701858 -0.028486932
-1.5703059e-09 -0.08462719 -0.05470019 0.0207807 -0.033613194 0.0031911065 0.12444512 0.055571653
0.12820101 -0.09868031 0.008657115 1.299687e-06 0.032408714 0.024994018 2.864281e-09 -0.03280516
0.001566464 -0.056735296 0.007544808 -0.0077108555 0.00014358254 0.043630365 -0.042742245 0.022376284
-0.034155563 -0.018414136 0.019759169 -0.0030911968 1.4050235e-09 -0.028573673 0.0021415525 0.009831443
-0.068218194 -0.0053609814 -0.013512231 0.060594827 -0.10919499 -0.002695758 -0.0545797 0.121228315
-0.015994383 -0.07727487 0.031608734 -0.004853894 0.08352714 0.043207895 -0.08391695 0.011724449

heads.trade.weight f4 [1, 64]
00000000: b62d f02f ad06 aa3b 1f8b 9838 ec82 e539
00000010: 472c 043c 5445 8b32 082f f2bd c5d4 f6b5
00000020: 0b64 e73c 6730 d2b4 47f7 d73c e15a 50be
00000030: 36de 2c3d fb5c 0138 8816 1d3d cc56 69bd
00000040: afa9 6134 6cc5 d53d a211 f8bd e6c8 153c
00000050: b33c 97bc ebc0 0c3d 14f1 a33c a2dc 8abc
00000060: a36b fabc 3538 c13c 20ee 2fbe 6b57 d0b1
00000070: 00d5 b63d e2b3 cfbb c3ce 0c37 e972 0d3e
00000080: 8422 d7bd f477 433d a644 b2bd 63e1 e9bd
00000090: fee1 97b5 13a3 fc3c e721 9f3d cae5 b2bc
000000a0: 581e a03c 26a1 10bd ffa9 903c ff94 443e
000000b0: 4300 a839 af90 af3d 0525 c43c 9305 babd
000000c0: 7b1e a8bd 0073 10bc 7e7b c9bd 3d6a b43c
000000d0: 7807 30bd 44d7 e1bc b657 16bc 2f91 183e
000000e0: 33c8 5cbc 3d37 a4bd 6859 da3d 87d9 39bd
000000f0: 9925 f63d 8934 d9bc fdc3 e13c b2a8 38bd
4.3688225e-10 0.005188784 7.273838e-05 0.00043775828 0.008067197 1.6213257e-08 -0.11825377 -1.8390352e-06
0.028245946 -3.9150765e-07 0.026363028 -0.20347168 0.042204104 3.084259e-05 0.038351566 -0.05696754
2.1016488e-07 0.10438046 -0.12112738 0.009142136 -0.01846156 0.03436367 0.020012416 -0.016950909
-0.030568903 0.023586372 -0.17180681 -6.063535e-09 0.08927345 -0.0063385824 8.392791e-06 0.13813366
-0.1050463 0.047721818 -0.087045 -0.11419942 -1.1316149e-06 0.030839479 0.07770138 -0.021838088
0.019545719 -0.035309933 0.017659185 0.19197462 0.00032043652 0.08572518 0.023943434 -0.090830944
-0.08208939 -0.008816481 -0.098380074 0.022023315 -0.042975873 -0.027568467 -0.009176185 0.14899133
-0.013475466 -0.08018348 0.10661584 -0.045373466 0.1201889 -0.026514309 0.027559275 -0.045082755

heads.fdi.weight f4 [1, 64]
00000000: 45f3 50b4 8a02 063e 4dcd 4ab1 cfe8 7231
00000010: 7d9b 323d c9f8 8931 0101 29bd 9139 8931
00000020: 260f e8bb ea64 ba30 bcd7 14bc 4915 e2bd
00000030: d89e 6a3d 05e6 de30 295b b2bd 22de 7abd
00000040: 7a63 94b5 fd57 7fbc 6a94 e2bc b160 4bbd
00000050: 5747 07be 66ed ad3c 0bed a63b 20c1 c0bc
00000060: 1f20 483d f5bd f4bd 2883 2dbe 56e2 6d31
00000070: 66c9 133d bfe0 36bd 0ebf 0fb0 38f7 863d
00000080: 9d25 70bd 27ea d03d 544d b0bd 1c61 903c
00000090: db27 3331 48a6 da3c 1287 ab3d 3b3f babc
000000a0: 82f6 92bd 2a21 a9bd 1792 fabc f466 cb3c
000000b0: 415c b530 aa62 e53c ae52 2f3c 5879 88bd
000000c0: a0bc a93b 3098 c6bc b644 98bd 735e 593d
000000d0: 849c 9b3d 5406 7bbd 5d45 b73d eb39 863d
000000e0: c200 893d 7ebf 6ebd a3c0 7e3c a03e a83c
000000f0: 8aaf 35bd 9ef8 d9bd 8c63 9dbd 26d8 c7bc
-1.946001e-07 0.13086906 -2.9511569e-09 3.5347971e-09 0.043605316 4.0155084e-09 -0.041260723 3.9937693e-09
-0.007081884 1.3561963e-09 -0.009084638 -0.11039216 0.05728039 1.6218001e-09 -0.08708794 -0.061247
-1.1055811e-06 -0.015584943 -0.02765866 -0.04965276 -0.13210808 0.021231364 0.0050941757 -0.02352959
0.048858758 -0.11950294 -0.16944563 3.4616696e-09 0.03608074 -0.04464793 -5.22946e-10 0.06590122
-0.05862962 0.10200911 -0.08608499 0.01762443 2.6070583e-09 0.026690617 0.08375372 -0.022735229
-0.07175924 -0.08258279 -0.03058724 0.024829365 1.3195703e-09 0.028001148 0.010700865 -0.066637695
0.0051799566 -0.02424249 -0.074349806 0.05306859 0.07598212 -0.06128533 0.08948777 0.06554016
0.06689598 -0.05828809 0.015548858 0.020537674 -0.04435686 -0.10643123 -0.07685003 -0.02439506

heads.res.weight f4 [1, 64]
00000000: be5a 7ab3 5795 333d ab30 0b32 ac31 8e30
00000010: 5d94 d73b 7d93 223a 5d67 d9bd 35d4 8f33
00000020: 95c3 a13d ba21 0930 f16a 833d 3ce7 37bd
00000030: aafc a93c a52d 1e32 20be c43d 6c70 dbbb
00000040: d8da 45b5 35f0 573d f3e8 d63c 2f8a 1d3d
00000050: 2b03 95bd 8c07 9c3d ce35 6e3d e80b 3abd
00000060: fa24 0f3e 5fbf bb3c c277 56be a1e3 66b1
00000070: fabc 013e 5859 50bc 9d35 5fb1 0dfe 123e
00000080: de32 0d3c b433 993c b46a 78bd 26ab 9d3d
00000090: 56eb 7933 4858 ef3b b8a9 ed3d ad34 513d
000000a0: 307d 93b9 7e22 f2bd 2303 f33b 7191 2b3e
000000b0: 0021 70b5 297c 53bd 67fe edbd 4761 98bd
000000c0: 92c9 abbd f694 a7bc 2ff3 87bd 5642 f5bc
000000d0: e211 123e 99f5 67bc 3296 a33d 0db0 f73c
000000e0: 30aa b13b 02ed 0c3d 4463 b9bc 0d28 84bc
000000f0: 0f66 c53d bc4a 8bbd 3c30 5dbc b7c4 22bd
-5.829019e-08 0.043843593 8.101931e-09 1.0345977e-09 0.0065789656 0.0006201787 -0.10615418 6.6975566e-08
0.078986324 4.988824e-10 0.06416882 -0.044898257 0.020750362 9.207189e-09 0.09606576 -0.0066967513
-7.370668e-07 0.052719314 0.026234126 0.03846186 -0.07275995 0.07618627 0.05815678 -0.04542151
0.13978949 0.022918401 -0.20944121 -3.3598797e-09 0.12669745 -0.012716614 -3.2481247e-09 0.14354725
0.008618085 0.018701412 -0.060648635 0.076986596 5.8188867e-08 0.007304225 0.11604637 0.051075626
-0.00028131297 -0.11822985 0.0074161454 0.167547 -8.945499e-07 -0.05163208 -0.11620789 -0.07440429
-0.08388056 -0.020456772 -0.066381805 -0.029938858 0.14264634 -0.014157676 0.07987632 0.030235315
0.0054218993 0.034405716 -0.022630341 -0.016132379 0.09638607 -0.06801364 -0.0135002695 -0.039738383
